model/model.pth (torch, 17216 bytes, 4 tensors)

linear1.weight f4 [256, 11]
-0.20883909 0.18897621 -0.047769725 0.23051347 -0.015522304 -0.017158778 0.12886243 0.054565642
0.23355375 -0.13190635 0.03313456 0.18252379 -0.1684024 0.29815245 0.061228883 -0.0381581
-0.023083776 -0.22135702 0.18456218 -0.043754797 -0.018841723 -0.055215277 -0.20987374 -0.12531503
0.03140995 -0.14809804 -0.25205973 0.28870565 0.08108963 0.25321257 -0.174406 0.25074068
-0.07233374 -0.06504485 -0.21287146 0.03688991 -0.12897709 0.005482045 0.0933778 -0.15736194
-0.21898152 -0.28848556 -0.08133467 0.1799901 -0.04921586 -0.2363008 -0.12916528 -0.04538995
-0.25658038 -0.0683998 0.21961462 -0.20457004 0.12302898 0.07836343 -0.0007511016 -0.03365809
-0.26383108 -0.032384336 0.26183665 0.068921834 -0.06603389 0.26089424 0.18677267 -0.19484183
-0.28750223 -0.16794965 0.19822761 -0.29738775 -0.11877751 0.024039932 -0.22053 0.07559176
-0.1458155 0.11046984 -0.018708892 -0.17911649 -0.035891753 0.19338351 0.19565445 -0.030421913
0.1217147 0.22144504 -0.18731314 -0.24061334 0.15910362 0.0532505 0.15810937 -0.042965606
0.25157505 0.1722846 -0.0052678585 0.033130214 -0.05099146 0.088119805 -0.32539502 -0.010808541
0.25071386 0.03186412 -0.26925722 -0.16989326 0.2218959 -0.223943 0.23204952 -0.2390106
-0.23302205 0.29984254 0.07515554 0.24377723 0.106327675 0.12354227 -0.28009698 -0.19450957
-0.28924784 0.0022318012 0.25624633 -0.26078078 0.062114976 -0.2722679 0.23373051 -0.005826534
0.15114754 0.094284914 -0.09892898 -0.024328917 -0.24247698 -0.14530148 0.19896571 -0.026161639
-0.029640215 0.043569874 0.13738355 0.10989212 -0.16290843 0.18096042 -0.14401986 -0.030148927
0.059125792 0.24797295 -0.16457248 -0.088045426 -0.014637131 0.2542829 0.08252071 0.11254856
-0.0045304 0.17226472 0.18248928 -0.0091511905 -0.16071637 0.035271585 -0.17768258 -0.2460824
-0.040003568 -0.10310279 -0.28417307 0.027837545 -0.10313018 -0.14972034 -0.12461303 0.24129969
-0.029795527 -0.19939876 -0.22224118 -0.25761107 -0.11141622 -0.25190789 -0.1134051 -0.14474961
-0.25156307 -0.15685196 0.007298909 0.2402098 -0.17246537 0.060252473 -0.1487096 0.29698133
0.23160845 -0.2358991 0.298513 0.018863505 -0.23001352 -0.19119257 -0.14529754 -0.29495534
-0.05230819 -0.17230402 0.13084823 -0.30303887 -0.25191236 0.23701817 -0.14979172 -0.26549223
0.27884778 0.08531947 -0.03490758 0.23176795 0.14345722 -0.07040253 -0.16414809 -0.20057689
-0.27042574 0.11786109 -0.21461993 0.23235168 0.14804238 0.11187136 -0.108830735 -0.1412451
-0.25308847 0.31725872 -0.098080605 0.033948988 -0.14283215 -0.303127 -0.03044341 -0.049883272
0.08340891 -0.021590231 0.29274282 0.28499058 0.0156506 -0.2866478 0.018640816 -0.15864658
0.07084925 0.022015974 -0.057592954 -0.25596854 -0.14547466 -0.07881705 0.14840516 -0.056384712
-0.08752504 -0.124749005 -0.2958557 0.02480973 0.21810499 -0.13957089 0.21751814 -0.12408947
0.11781389 0.17312764 0.2810062 0.1255078 0.0358074 0.25044966 -0.2468373 -0.086856976
-0.2800009 -0.19808266 0.028357126 0.10304439 -0.2669165 -0.036993742 0.22828108 -0.23199598
00000000: ead9 55be fb82 413e 30aa 43bd b90b 6c3e
00000010: 4351 7ebc 9190 8cbc 83f4 033e 3980 5f3d
00000020: b728 6f3e 7512 07be 1bb8 073d 84e7 3a3e
00000030: ae71 2cbe 70a7 983e 23cb 7a3d ab4b 1cbd
00000040: 301a bdbc 6aab 62be defd 3c3e 3b38 33bd
00000050: f559 9abc 6a29 62bd 24e9 56be 9552 00be
00000060: b8a7 003d 03a7 17be f90d 81be 3ad1 933e
00000070: 5212 a63d 14a5 813e 7d97 32be 1561 803e
00000080: b623 94bd 3c36 85bd fafa 59be e019 173d
00000090: 9212 04be baa2 b33b dc3c bf3d 7d23 21be
000000a0: b13c 60be 61b4 93be cb92 a6bd 534f 383e
000000b0: 9296 49bd d6f8 71be e743 04be d0ea 39bd
000000c0: 815e 83be 3215 8cbd a8e2 603e cf7a 51be
000000d0: 9ef6 fb3d 027d a03d 93e5 44ba 11dd 09bd
000000e0: de14 87be 70a5 04bd 740f 863e e426 8d3d
000000f0: c73c 87bd ee93 853e 5641 3f3e 9e84 47be
00000100: 7e33 93be fefa 2bbe 2efc 4a3e 3543 98be
00000110: a041 f3bd 64ef c43c 9ed2 61be dacf 9a3d
00000120: a950 15be 033e e23d 6443 99bc 506a 37be
00000130: 3b03 13bd 5406 463e a459 483e 6037 f9bc
00000140: 8e45 f93d 7dc2 623e 04cf 3fbe 5863 76be
00000150: 0fec 223e 321d 5a3d 6ce7 213e b4fc 2fbd
00000160: 72ce 803e 606b 303e 009e acbb 8cb3 073d
00000170: 6cdc 50bd 2878 b43d 2d9a a6be 4f16 31bc
00000180: 915d 803e f483 023d 15dc 89be 80f8 2dbe
00000190: ae38 633e 5051 65be 649e 6d3e 32bf 74be
000001a0: 559d 6ebe f684 993e 26eb 993d bda0 793e
000001b0: 53c2 d93d bb03 fd3d df68 8fbe 842d 47be
000001c0: 4b18 94be 6943 123b b832 833e 0f85 85be
000001d0: 466c 7e3d b366 8bbe 0d57 6f3e 82ec bebb
000001e0: 6cc6 1a3e 7318 c13d 479b cabd 704d c7bc
000001f0: e34b 78be e9c9 14be abbd 4b3e ef50 d6bc
00000200: 09d0 f2bc 5376 323d 46ae 0c3e 1f0f e13d
00000210: 78d1 26be b04d 393e f179 13be e2fa f6bc
00000220: e32d 723d 9fec 7d3e b085 28be 2951 b4bd
00000230: 94d0 6fbc 5e31 823e 9e00 a93d dc7f e63d
00000240: c073 94bb 2a66 303e 78de 3a3e e0ee 15bc
00000250: d592 24be f078 103d 6cf2 35be 06fd 7bbe
00000260: c8da 23bd 8e27 d3bd 227f 91be 900b e43c
00000270: ea35 d3bd 4a50 19be 1e35 ffbd 4417 773e
00000280: c015 f4bc 302f 4cbe 3193 63be 99e5 83be
00000290: 302e e4bd 12fa 80be ef40 e8bd 3e39 14be
000002a0: e0cc 80be cd9d 20be b02b ef3b 8ff9 753e
000002b0: c39a 30be 4ccb 763d 5447 18be f00d 983e
000002c0: c42a 6d3e 898f 71be b2d6 983e a387 9a3c
000002d0: aa88 6bbe fcc7 43be e1c8 14be 6304 97be
000002e0: 1d41 56bd 7770 30be 14fd 053e e927 9bbe
000002f0: a8fa 80be e4b4 723e 0063 19be 99ee 87be
00000300: 23c5 8e3e f9bb ae3d 40fb 0ebd 9454 6d3e
00000310: 73e6 123e 342f 90bd 7016 28be 0764 4dbe
00000320: 3e75 8abe 2861 f13d 54c5 5bbe 99ed 6d3e
00000330: 6c98 173e d01c e53d a6e2 debd 8ea2 10be
00000340: d094 81be bc6f a23e 7cde c8bd 180e 0b3d
00000350: 9742 12be 7633 9bbe 7564 f9bc 6752 4cbd
00000360: 4ad2 aa3d ffdd b0bc 63e2 953e 49ea 913e
00000370: b035 803c 80c3 92be a0b4 983c 4074 22be
00000380: 6919 913d d85a b43c 97e6 6bbd 4f0e 83be
00000390: 4ff7 14be d56a a1bd 86f7 173e a8f3 66bd
000003a0: 5440 b3bd 687c ffbd 667a 97be c63d cb3c
000003b0: ea56 5f3e aceb 0ebe 13bd 5e3e 9f22 febd
000003c0: 6948 f13d 5f48 313e 0be0 8f3e 1e85 003e
000003d0: c8aa 123d f03a 803e ebc2 7cbe 12e2 b1bd
000003e0: 475c 8fbe 2ed6 4abe 344d e83c f008 d33d
000003f0: 48a9 88be c086 17bd 84c2 693e 5b90 6dbe

linear1.bias f4 [256]
-0.050271757 0.08600223 0.18952408 0.21702649 -0.30671492 0.25515613 0.13853297 -0.19453566
0.013200949 -0.07625519 -0.24884896 0.069881275 0.27708605 -0.18069828 -0.181267 0.014448324
0.025632218 0.2600652 -0.23440737 0.23491584 0.12722161 -0.019909926 -0.2676245 -0.21988577
-0.2085044 -0.1230641 0.0458971 -0.23129512 0.17713258 -0.09296494 -0.035087127 -0.16869532
0.25111496 -0.0053300587 0.021592349 0.04694976 0.00742142 -0.13118772 0.16486506 -0.0742831
0.057872664 0.11931545 0.2559504 -0.2182961 0.20271598 0.17559887 -0.13607214 -0.19724767
-0.23240548 0.04705414 -0.072793834 0.15205531 -0.03360167 -0.18122196 -0.23740232 0.14535691
-0.26473835 0.18184556 0.2373858 -0.015257806 0.14006953 -0.10363396 0.10263883 -0.22083817
0.29383323 0.06983751 -0.0057230303 -0.031362675 0.07346328 0.0221086 0.10655544 -0.1138897
0.09064283 0.12468111 -0.012171865 -0.2423868 0.15969637 0.10039748 0.058563754 0.18429378
0.20911981 -0.074460916 0.10713183 -0.14634465 -0.27248767 0.28749144 0.22114539 0.30436552
-0.21877146 -0.10129277 -0.24694546 -0.050499395 0.1749662 -0.049324922 -0.13488466 -0.21231884
0.3067134 -0.24412636 -0.03243574 -0.28610992 0.2233107 0.13289918 -0.11194986 -0.1077717
0.053750522 -0.22655225 0.08373905 0.11358766 0.18819344 0.19146325 -0.18589346 0.24659197
-0.20347098 0.17205961 -0.033026557 -0.07364933 -0.03180921 0.24405046 0.13866857 0.14885885
-0.2816468 0.20112605 0.025330674 0.091031246 -0.053792033 -0.23010083 0.17450121 0.26975894
0.23346627 0.09166268 0.21627049 -0.07273983 -0.13918553 -0.25004572 0.16323493 0.15533383
-0.10334417 0.28000584 -0.2694554 0.088723995 -0.18679672 0.17855926 -0.17960477 -0.14953354
0.115443215 -0.25154805 0.0632714 0.27481687 0.08687708 0.23207355 -0.18004273 -0.14962885
-0.05153912 0.115865394 0.024947297 0.0026322335 -0.14914623 0.12431979 -0.13125257 -0.18305992
0.13505036 0.19200864 0.14571564 0.09712693 -0.17474657 0.089976266 -0.12546691 0.16136678
0.17667766 0.058089495 -0.0641278 0.10884779 0.050796706 0.14021656 -0.18132332 0.2244798
0.2483002 0.2801899 0.21093883 -0.2743814 0.027733583 -0.20941192 0.118248485 -0.20791306
0.06255286 0.25978506 -0.18701823 -0.136215 -0.09687107 0.040744666 -0.11170639 -0.24536225
-0.29376042 0.19825915 0.10840142 0.10832184 0.2070308 -0.18822192 -0.177186 0.18336731
-0.22664408 0.20298827 -0.18749048 -0.0048121363 -0.10514037 0.21953459 0.19637933 0.15534008
0.06593553 -0.035649728 0.10435301 -0.17848237 0.16842008 -0.22842012 0.013632262 -0.10644588
-0.22448619 0.085202776 0.10844251 0.23438117 -0.06898908 0.056634773 0.1952955 -0.2898176
0.14237389 0.25098175 -0.12440356 -0.1062752 -0.07369316 0.064139776 -0.14603895 -0.018008621
-0.09559504 -0.22918114 0.13527341 0.016512882 0.061198857 -0.18970376 0.30527997 -0.081607394
-0.09607092 -0.10949791 -0.31400245 0.28182274 -0.250465 -0.17090948 -0.10725884 0.068201445
0.15287633 0.050540373 0.19929674 0.23574828 0.22170776 0.17907774 0.09926339 0.020562045
00000000: c2e9 4dbd f021 b03d 9a12 423e 313c 5e3e
00000010: bd09 9dbe d3a3 823e 96db 0d3e 5b34 47be
00000020: cb48 583c ae2b 9cbd 43d2 7ebe ea1d 8f3d
00000030: 39de 8d3e f808 39be 0e9e 39be aab8 6c3c
00000040: a8fa d13c 4427 853e 7c08 70be c78d 703e
00000050: 6246 023e 241a a3bc 1406 89be bc29 61be
00000060: 2d82 55be 0809 fcbd 99fe 3b3d a1d8 6cbe
00000070: 3e62 353e 6764 bebd 85b7 0fbd 77be 2cbe
00000080: 2492 803e c6a7 aebb 70e2 b03c 644e 403d
00000090: 622f f33b 1356 06be 63d2 283e bd21 98bd
000000a0: e30b 6d3d a95b f43d ee0b 833e 0389 5fbe
000000b0: c794 4f3e 31d0 333e 7f56 0bbe 4bfb 49be
000000c0: b4fb 6dbe d8bb 403d ef14 95bd 63b4 1b3e
000000d0: e8a1 09bd 4092 39be 9819 73be 71d8 143e
000000e0: c98b 87be b935 3a3e 4315 733e e0fb 79bc
000000f0: 636e 0f3e 0b3e d4bd 4f34 d23d 6723 62be
00000100: 4f71 963e f806 8f3d 4288 bbbb 2676 00bd
00000110: eb73 963d 181d b53c bd39 da3d 013f e9bd
00000120: f3a2 b93d cf58 ff3d 816c 47bc 3f34 78be
00000130: 7287 233e 329d cd3d 8ce0 6f3d 82b7 3c3e
00000140: 8123 563e f77e 98bd ef67 db3d 5fdb 15be
00000150: 8183 8bbe 1432 933e f073 623e ccd5 9b3e
00000160: a005 60be 9572 cfbd 45df 7cbe 74d8 4ebd
00000170: 572a 333e ee08 4abd 341f 0abe 1c6a 59be
00000180: 8a09 9d3e 43fc 79be 57db 04bd 007d 92be
00000190: 8fab 643e b916 083e f845 e5bd 69b7 dcbd
000001a0: 8229 5c3d 50fd 67be 617f ab3d a6a0 e83d
000001b0: c8b5 403e f10e 443e db5a 3ebe 9b82 7c3e
000001c0: b25a 50be 6530 303e db46 07bd 76d5 96bd
000001d0: 604a 02bd 5de8 793e 22ff 0d3e 746e 183e
000001e0: 0234 90be fdf3 4d3e 4682 cf3c 976e ba3d
000001f0: 0955 5cbd 8d9f 6bbe 72b0 323e d81d 8a3e
00000200: c811 6f3e a5b9 bb3d 0376 5d3e 9ff8 94bd
00000210: a786 0ebe fe05 80be 0f27 273e d50f 1f3e
00000220: 1ca6 d3bd ed5c 8f3e 0ff6 89be edb4 b53d
00000230: a447 3fbe 3dd8 363e 50ea 37be 521f 19be
00000240: 7e6d ec3d e8ca 80be 7094 813d ccb4 8c3e
00000250: 9cec b13d b0a4 6d3e 1f5d 38be 4e38 19be
00000260: af1a 53bd d64a ed3d 465e cc3c 8d81 2c3b
00000270: cab9 18be 609b fe3d 1367 06be 0f74 3bbe
00000280: a44a 0a3e ea9d 443e 7b36 153e 7cea c63d
00000290: c4f0 32be 7a45 b83d 667a 00be 553d 253e
000002a0: fdea 343e 40ef 6d3d 7055 83bd 97eb de3d
000002b0: 3510 503d ee94 0f3e d2ac 39be 08de 653e
000002c0: 6842 7e3e 0d75 8f3e 5900 583e b87b 8cbe
000002d0: 8a31 e33c 1470 56be 432c f23d 29e7 54be
000002e0: b71b 803d 8c02 853e b581 3fbe f27b 0bbe
000002f0: 5764 c6bd e1e3 263d 52c6 e4bd 3e40 7bbe
00000300: c467 96be 7204 4b3e 9001 de3d d7d7 dd3d
00000310: e2ff 533e 3fbd 40be 3f70 35be a4c4 3b3e
00000320: 6315 68be 28dc 4f3e 81fd 3fbe 20af 9dbb
00000330: d653 d7bd adcd 603e aa17 493e 7811 1f3e
00000340: 3509 873d 7305 12bd 08b7 d53d 15c4 36be
00000350: 5076 2c3e f7e6 69be da59 5f3c 4c00 dabd
00000360: b5df 65be cb7e ae3d 1b17 de3d 9e01 703e
00000370: 264a 8dbd ddf9 673d 8bfb 473e f962 94be
00000380: 76ca 113e ae80 803e 4bc7 febd d0a6 d9bd
00000390: 71ec 96bd b75b 833d 3c8b 15be d186 93bc
000003a0: 55c7 c3bd 76ae 6abe 1d85 0a3e 0646 873c
000003b0: a7ab 7a3d b441 42be a84d 9c3e c721 a7bd
000003c0: d5c0 c4bd 7140 e0bd eec4 a0be 124b 903e
000003d0: f33c 80be e502 2fbe 86aa dbbd 33ad 8b3d
000003e0: 9d8b 1c3e 6c03 4f3d 7214 4c3e ff67 713e
000003f0: 5c07 633e 2860 373e 9b4a cb3d bc71 a83c

linear2.weight f4 [3, 256]
-0.00030722487 0.020676665 -0.009508317 -0.0033404536 0.011560063 0.05094128 -0.03758298 -0.011579549
0.031171596 -0.024247877 -0.04042041 -0.024247041 -0.015979083 0.051197678 -0.05721148 -0.03713574
0.026141353 0.006905067 0.047821928 -0.020267874 0.043186042 0.002168236 0.022846052 0.018214919
-0.04022733 0.023126082 -0.039073143 -0.03604989 -0.007956574 -0.03250075 0.03964664 -0.05727662
0.018789135 -0.034361843 0.016091138 0.026898934 -0.0010212469 -0.009976059 -0.042437505 -0.042061277
-0.023652583 -0.052279796 -0.022408636 -0.028163811 -0.0017023856 -0.009335228 0.0433261 -0.025333187
0.01644859 -0.008786952 -0.028951075 0.02473274 0.04185501 0.042082332 0.04590766 0.04228777
-0.01508701 -0.037106927 -0.063272044 -0.03628658 -0.012953849 -0.0053718598 0.057095177 -0.028740138
-0.04207337 0.008883984 0.020621607 -0.016434351 0.002473888 0.0146697415 -0.048391208 0.024824787
0.042912375 0.013775186 0.05147628 -0.04683984 0.0045539145 0.0366833 -0.04470291 -0.038016547
-0.0047781104 -0.027118942 -0.04053221 0.0015531839 -0.018784933 -0.058003288 0.07614508 -0.04109459
0.055098213 -0.02276917 0.040249243 -0.0427025 0.060532458 -0.010545999 0.06884605 0.0060918033
-0.061359122 -0.021703523 0.071522474 -0.021345496 -0.025394386 -0.041242704 -0.04261449 -0.018443398
0.048843272 0.038350422 0.017041182 -0.030725662 -0.033111602 -0.016159171 -0.07558851 0.016871275
-0.03647588 0.028239049 -0.016790412 -0.007870704 0.007659465 -0.053739864 -0.0025842509 0.0159516
-0.027200628 -0.0001346083 -0.02384588 0.043939214 0.05630584 0.0078935325 -0.030892028 0.00441187
0.047330394 -0.04205993 0.022401622 0.050709292 -0.017604657 -0.017217996 0.0027202857 0.028119216
-0.030409843 -0.03681018 0.045198105 -0.0700589 0.017787434 -0.052618824 0.030468844 -0.045918457
0.07321498 0.0029309432 0.029033702 -0.0021234122 -0.04583928 0.06918847 0.024630668 -0.044276215
-0.0357703 0.0574612 -0.063964024 -0.020322451 -0.05171783 0.028354608 -0.038759984 0.021647152
-0.032861356 0.011070922 0.0059204283 -0.05585119 -0.0038120637 -0.04239324 -0.042530473 0.030170392
0.06863089 0.033686146 -0.044795237 0.039003566 -0.030294433 -0.054432586 0.04930789 -0.069150195
-0.047680177 -0.0419913 -0.029924424 0.00038335472 -0.0036048084 -0.04625483 0.066392414 -0.003740869
0.039428197 0.000914101 0.045160107 -0.031382583 0.007159191 -0.017406184 -0.041901767 -0.07083825
-0.05291849 0.007287607 0.055922255 -0.007279543 -0.00037979952 0.058495216 -0.016427863 -0.017615639
-0.019310726 -0.030642325 -0.012920271 0.04187941 0.04802829 -0.05059269 0.014440387 0.02685356
-0.051578235 0.011694626 -0.0009696358 0.013290733 0.04098255 -0.0039395704 0.034523178 0.03603433
0.000698414 0.000652557 -0.022247301 -0.07105802 -0.027741708 -0.025132617 -0.050375696 -0.019030267
-0.06342364 0.053130828 -0.01266172 0.026550181 -0.0094240755 0.022929877 0.029565288 -0.013028902
-0.020880252 -0.023644423 0.021527015 -0.016336247 -0.027261853 -0.00924538 -0.0705611 -0.042051923
0.036783062 -0.03803876 -0.02886498 -0.0033193151 -0.013271229 -0.0031783998 0.05912689 -0.015519569
0.0005741492 0.0038686218 0.051534843 -0.031501 -0.012258634 0.018185131 -0.067408934 -0.0034033875
00000000: 0613 a1b9 1c62 a93c c6c8 1bbc 83eb 5abb
00000010: 6b66 3d3c cea7 503d 9cf0 19bd 26b8 3dbc
00000020: 935b ff3c 7ca3 c6bc df8f 25bd bba1 c6bc
00000030: 91e6 82bc a8b4 513d 9656 6abd a51b 18bd
00000040: 6426 d63c e643 e23b ede0 433d d008 a6bc
00000050: d9e3 303d f718 0e3b a527 bb3c 7437 953c
00000060: 6ac5 24bd e972 bd3c 290b 20bd 0da9 13bd
00000070: 4a5c 02bc 821f 05bd 8464 223d e49a 6abd
00000080: aceb 993c 01bf 0cbd 90d1 833c 275b dc3c
00000090: 5cdb 85ba a072 23bc f3d2 2dbd 7248 2cbd
000000a0: 10c3 c1bc 5723 56bd 5192 b7bc cbb7 e6bc
000000b0: 9522 dfba c9f2 18bc b576 313d 8b87 cfbc
000000c0: 32bf 863c 26f7 0fbc ce2a edbc 519c ca3c
000000d0: 2970 2b3d 865e 2c3d ac09 3c3d f135 2d3d
000000e0: 822f 77bc 6ffd 17bd c694 81bd 3da1 14bd
000000f0: 613c 54bc 6d06 b0bb a2dc 693d 7070 ebbc
00000100: 2055 2cbd 218e 113c a5ee a83c 55a1 86bc
00000110: f420 223b 5b59 703c dc35 46bd 5a5d cb3c
00000120: e3c4 2f3d 51b1 613c cbd8 523d 22db 3fbd
00000130: 0139 953b 3a41 163d 661a 37bd 3db7 1bbd
00000140: b291 9cbb 8b28 debc 1a05 26bd 3494 cb3a
00000150: dce2 99bc db94 6dbd f4f1 9b3d cd52 28bd
00000160: aaae 613d 6986 babc 64dc 243d d1e8 2ebd
00000170: e2f0 773d 20c9 2cbc 28ff 8c3d c09d c73b
00000180: b453 7bbd 96cb b1bc 607a 923d c0dc aebc
00000190: e307 d0bc 1cee 28bd 888c 2ebd 9c16 97bc
000001a0: e20f 483d 5515 1d3d f399 8b3c 62b4 fbbc
000001b0: 08a0 07bd 3d60 84bc 26ce 9abd a135 8a3c
000001c0: bb67 15bd 9455 e73c 0c8c 89bc 20f4 00bc
000001d0: 40fc fa3b 551e 5cbd 895c 29bb eeac 823c
000001e0: dad3 debc a425 0db9 6f58 c3bc 9bf9 333d
000001f0: f4a0 663d e053 013c 4711 fdbc 7391 903b
00000200: 84dd 413d 0847 2cbd 9b83 b73c 8cb4 4f3d
00000210: a437 90bc c10c 8dbc d246 323b 455a e63c
00000220: 101e f9bc 45c6 16bd a621 393d 0a7b 8fbd
00000230: f4b6 913c d686 57bd cc99 f93c fe14 3cbd
00000240: bcf1 953d 1115 403b 16d8 ed3c f228 0bbb
00000250: f8c1 3bbd afb2 8d3d 41c6 c93c fa5a 35bd
00000260: e183 12bd 6f5c 6b3d 92ff 82bd 457b a6bc
00000270: 13d6 53bd ec47 e83c cac2 1ebd 5e55 b13c
00000280: a199 06bd d062 353c 2700 c23b 38c4 64bd
00000290: d1d3 79bb 89a4 2dbd 6f34 2ebd e627 f73c
000002a0: 5a8e 8c3d 7cfa 093d 367b 37bd 34c2 1f3d
000002b0: 082c f8bc b4f4 5ebd 12f7 493d 9e9e 8dbd
000002c0: 4a4c 43bd 12ff 2bbd 1124 f5bc 00fd c839
000002d0: a63e 6cbb b475 3dbd bff8 873d 5e29 75bb
000002e0: 767f 213d 48a0 6f3a cef9 383d 068b 00bd
000002f0: a697 ea3b 6a97 8ebc 30a1 2bbd a513 91bd
00000300: 0fc1 58bd e1cc ee3b bc0e 653d 3c89 eebb
00000310: d41f c7b9 ae98 6f3d ba93 86bc ac4e 90bc
00000320: 8731 9ebc 9d05 fbbc 8baf 53bc bf89 2b3d
00000330: 50b9 443d 483a 4fbd 5f97 6c3c fffb db3c
00000340: b343 53bd d19a 3f3c 282f 7eba 60c1 593c
00000350: 51dd 273d 8317 81bb 2d68 0d3d bc98 133d
00000360: c515 373a 5c10 2b3a f93f b6bc de86 91bd
00000370: 9442 e3bc ebe2 cdbc bf56 4ebd 5de5 9bbc
00000380: 41e4 81bd b69f 593d 1a73 4fbc c47f d93c
00000390: 7067 1abc 70d7 bb3c e732 f23c 2d77 55bc
000003a0: 100d abbc f3b1 c1bc 6c59 b03c 98d3 85bc
000003b0: 4054 dfbc ef79 17bc 5782 90bd a33e 2cbd
000003c0: d6a9 163d 88ce 1bbd 4076 ecbc de88 59bb
000003d0: 926f 59bc b34c 50bb 0a2f 723d ca45 7ebc
000003e0: 8082 163a b488 7d3b 3316 533d 3107 01bd
000003f0: 70d8 48bc fcf8 943c b20d 8abd 5e0b 5fbb

linear2.bias f4 [3]
0.03051042 -0.009201928 -0.0429125
00000000: fdf0 f93c afc3 16bc 05c5 2fbd
